vit_snn(
  (patch_embed): SpikingTokenizer(
    (proj_conv): Conv2d(3, 96, kernel_size=(3, 3), stride=(1, 1), padding=(1, 1), bias=False)
    (proj_bn): BatchNorm2d(96, eps=1e-05, momentum=0.1, affine=True, track_running_stats=True)
    (proj1_lif): MultiStepLIFNode(
      v_threshold=1.0, v_reset=0.0, detach_reset=True, tau=2.0, backend=torch
      (surrogate_function): Sigmoid(alpha=4.0, spiking=True)
    )
    (maxpool1): MaxPool2d(kernel_size=3, stride=2, padding=1, dilation=1, ceil_mode=False)
    (proj1_conv): Conv2d(96, 192, kernel_size=(3, 3), stride=(1, 1), padding=(1, 1), bias=False)
    (proj1_bn): BatchNorm2d(192, eps=1e-05, momentum=0.1, affine=True, track_running_stats=True)
    (proj2_lif): MultiStepLIFNode(
      v_threshold=1.0, v_reset=0.0, detach_reset=True, tau=2.0, backend=torch
      (surrogate_function): Sigmoid(alpha=4.0, spiking=True)
    )
    (maxpool2): MaxPool2d(kernel_size=3, stride=2, padding=1, dilation=1, ceil_mode=False)
    (proj2_conv): Conv2d(192, 384, kernel_size=(3, 3), stride=(1, 1), padding=(1, 1), bias=False)
    (proj2_bn): BatchNorm2d(384, eps=1e-05, momentum=0.1, affine=True, track_running_stats=True)
    (proj3_lif): MultiStepLIFNode(
      v_threshold=1.0, v_reset=0.0, detach_reset=True, tau=2.0, backend=torch
      (surrogate_function): Sigmoid(alpha=4.0, spiking=True)
    )
    (maxpool3): MaxPool2d(kernel_size=3, stride=2, padding=1, dilation=1, ceil_mode=False)
    (proj3_conv): Conv2d(384, 768, kernel_size=(3, 3), stride=(1, 1), padding=(1, 1), bias=False)
    (proj3_bn): BatchNorm2d(768, eps=1e-05, momentum=0.1, affine=True, track_running_stats=True)
    (proj4_lif): MultiStepLIFNode(
      v_threshold=1.0, v_reset=0.0, detach_reset=True, tau=2.0, backend=torch
      (surrogate_function): Sigmoid(alpha=4.0, spiking=True)
    )
    (maxpool4): MaxPool2d(kernel_size=3, stride=2, padding=1, dilation=1, ceil_mode=False)
    (proj4_conv): Conv2d(768, 768, kernel_size=(3, 3), stride=(1, 1), padding=(1, 1), bias=False)
    (proj4_bn): BatchNorm2d(768, eps=1e-05, momentum=0.1, affine=True, track_running_stats=True)
  )
  (block): ModuleList(
    (0): SpikingTransformer(
      (norm1): LayerNorm((768,), eps=1e-05, elementwise_affine=True)
      (attn): SpikingSelfAttention(
        (proj_lif): MultiStepLIFNode(
          v_threshold=1.0, v_reset=0.0, detach_reset=True, tau=2.0, backend=torch
          (surrogate_function): Sigmoid(alpha=4.0, spiking=True)
        )
        (q_conv): Conv1d(768, 768, kernel_size=(1,), stride=(1,), bias=False)
        (q_bn): BatchNorm1d(768, eps=1e-05, momentum=0.1, affine=True, track_running_stats=True)
        (q_lif): MultiStepLIFNode(
          v_threshold=1.0, v_reset=0.0, detach_reset=True, tau=2.0, backend=torch
          (surrogate_function): Sigmoid(alpha=4.0, spiking=True)
        )
        (k_conv): Conv1d(768, 768, kernel_size=(1,), stride=(1,), bias=False)
        (k_bn): BatchNorm1d(768, eps=1e-05, momentum=0.1, affine=True, track_running_stats=True)
        (k_lif): MultiStepLIFNode(
          v_threshold=1.0, v_reset=0.0, detach_reset=True, tau=2.0, backend=torch
          (surrogate_function): Sigmoid(alpha=4.0, spiking=True)
        )
        (v_conv): Conv1d(768, 768, kernel_size=(1,), stride=(1,), bias=False)
        (v_bn): BatchNorm1d(768, eps=1e-05, momentum=0.1, affine=True, track_running_stats=True)
        (v_lif): MultiStepLIFNode(
          v_threshold=1.0, v_reset=0.0, detach_reset=True, tau=2.0, backend=torch
          (surrogate_function): Sigmoid(alpha=4.0, spiking=True)
        )
        (attn_lif): MultiStepLIFNode(
          v_threshold=0.5, v_reset=0.0, detach_reset=True, tau=2.0, backend=torch
          (surrogate_function): Sigmoid(alpha=4.0, spiking=True)
        )
        (proj_conv): Conv1d(768, 768, kernel_size=(1,), stride=(1,))
        (proj_bn): BatchNorm1d(768, eps=1e-05, momentum=0.1, affine=True, track_running_stats=True)
      )
      (drop_path): Identity()
      (norm2): LayerNorm((768,), eps=1e-05, elementwise_affine=True)
      (mlp): MLP(
        (mlp1_lif): MultiStepLIFNode(
          v_threshold=1.0, v_reset=0.0, detach_reset=True, tau=2.0, backend=torch
          (surrogate_function): Sigmoid(alpha=4.0, spiking=True)
        )
        (mlp1_conv): Conv2d(768, 3072, kernel_size=(1, 1), stride=(1, 1))
        (mlp1_bn): BatchNorm2d(3072, eps=1e-05, momentum=0.1, affine=True, track_running_stats=True)
        (mlp2_lif): MultiStepLIFNode(
          v_threshold=1.0, v_reset=0.0, detach_reset=True, tau=2.0, backend=torch
          (surrogate_function): Sigmoid(alpha=4.0, spiking=True)
        )
        (mlp2_conv): Conv2d(3072, 768, kernel_size=(1, 1), stride=(1, 1))
        (mlp2_bn): BatchNorm2d(768, eps=1e-05, momentum=0.1, affine=True, track_running_stats=True)
      )
    )
    (1): SpikingTransformer(
      (norm1): LayerNorm((768,), eps=1e-05, elementwise_affine=True)
      (attn): SpikingSelfAttention(
        (proj_lif): MultiStepLIFNode(
          v_threshold=1.0, v_reset=0.0, detach_reset=True, tau=2.0, backend=torch
          (surrogate_function): Sigmoid(alpha=4.0, spiking=True)
        )
        (q_conv): Conv1d(768, 768, kernel_size=(1,), stride=(1,), bias=False)
        (q_bn): BatchNorm1d(768, eps=1e-05, momentum=0.1, affine=True, track_running_stats=True)
        (q_lif): MultiStepLIFNode(
          v_threshold=1.0, v_reset=0.0, detach_reset=True, tau=2.0, backend=torch
          (surrogate_function): Sigmoid(alpha=4.0, spiking=True)
        )
        (k_conv): Conv1d(768, 768, kernel_size=(1,), stride=(1,), bias=False)
        (k_bn): BatchNorm1d(768, eps=1e-05, momentum=0.1, affine=True, track_running_stats=True)
        (k_lif): MultiStepLIFNode(
          v_threshold=1.0, v_reset=0.0, detach_reset=True, tau=2.0, backend=torch
          (surrogate_function): Sigmoid(alpha=4.0, spiking=True)
        )
        (v_conv): Conv1d(768, 768, kernel_size=(1,), stride=(1,), bias=False)
        (v_bn): BatchNorm1d(768, eps=1e-05, momentum=0.1, affine=True, track_running_stats=True)
        (v_lif): MultiStepLIFNode(
          v_threshold=1.0, v_reset=0.0, detach_reset=True, tau=2.0, backend=torch
          (surrogate_function): Sigmoid(alpha=4.0, spiking=True)
        )
        (attn_lif): MultiStepLIFNode(
          v_threshold=0.5, v_reset=0.0, detach_reset=True, tau=2.0, backend=torch
          (surrogate_function): Sigmoid(alpha=4.0, spiking=True)
        )
        (proj_conv): Conv1d(768, 768, kernel_size=(1,), stride=(1,))
        (proj_bn): BatchNorm1d(768, eps=1e-05, momentum=0.1, affine=True, track_running_stats=True)
      )
      (drop_path): DropPath(drop_prob=0.029)
      (norm2): LayerNorm((768,), eps=1e-05, elementwise_affine=True)
      (mlp): MLP(
        (mlp1_lif): MultiStepLIFNode(
          v_threshold=1.0, v_reset=0.0, detach_reset=True, tau=2.0, backend=torch
          (surrogate_function): Sigmoid(alpha=4.0, spiking=True)
        )
        (mlp1_conv): Conv2d(768, 3072, kernel_size=(1, 1), stride=(1, 1))
        (mlp1_bn): BatchNorm2d(3072, eps=1e-05, momentum=0.1, affine=True, track_running_stats=True)
        (mlp2_lif): MultiStepLIFNode(
          v_threshold=1.0, v_reset=0.0, detach_reset=True, tau=2.0, backend=torch
          (surrogate_function): Sigmoid(alpha=4.0, spiking=True)
        )
        (mlp2_conv): Conv2d(3072, 768, kernel_size=(1, 1), stride=(1, 1))
        (mlp2_bn): BatchNorm2d(768, eps=1e-05, momentum=0.1, affine=True, track_running_stats=True)
      )
    )
    (2): SpikingTransformer(
      (norm1): LayerNorm((768,), eps=1e-05, elementwise_affine=True)
      (attn): SpikingSelfAttention(
        (proj_lif): MultiStepLIFNode(
          v_threshold=1.0, v_reset=0.0, detach_reset=True, tau=2.0, backend=torch
          (surrogate_function): Sigmoid(alpha=4.0, spiking=True)
        )
        (q_conv): Conv1d(768, 768, kernel_size=(1,), stride=(1,), bias=False)
        (q_bn): BatchNorm1d(768, eps=1e-05, momentum=0.1, affine=True, track_running_stats=True)
        (q_lif): MultiStepLIFNode(
          v_threshold=1.0, v_reset=0.0, detach_reset=True, tau=2.0, backend=torch
          (surrogate_function): Sigmoid(alpha=4.0, spiking=True)
        )
        (k_conv): Conv1d(768, 768, kernel_size=(1,), stride=(1,), bias=False)
        (k_bn): BatchNorm1d(768, eps=1e-05, momentum=0.1, affine=True, track_running_stats=True)
        (k_lif): MultiStepLIFNode(
          v_threshold=1.0, v_reset=0.0, detach_reset=True, tau=2.0, backend=torch
          (surrogate_function): Sigmoid(alpha=4.0, spiking=True)
        )
        (v_conv): Conv1d(768, 768, kernel_size=(1,), stride=(1,), bias=False)
        (v_bn): BatchNorm1d(768, eps=1e-05, momentum=0.1, affine=True, track_running_stats=True)
        (v_lif): MultiStepLIFNode(
          v_threshold=1.0, v_reset=0.0, detach_reset=True, tau=2.0, backend=torch
          (surrogate_function): Sigmoid(alpha=4.0, spiking=True)
        )
        (attn_lif): MultiStepLIFNode(
          v_threshold=0.5, v_reset=0.0, detach_reset=True, tau=2.0, backend=torch
          (surrogate_function): Sigmoid(alpha=4.0, spiking=True)
        )
        (proj_conv): Conv1d(768, 768, kernel_size=(1,), stride=(1,))
        (proj_bn): BatchNorm1d(768, eps=1e-05, momentum=0.1, affine=True, track_running_stats=True)
      )
      (drop_path): DropPath(drop_prob=0.057)
      (norm2): LayerNorm((768,), eps=1e-05, elementwise_affine=True)
      (mlp): MLP(
        (mlp1_lif): MultiStepLIFNode(
          v_threshold=1.0, v_reset=0.0, detach_reset=True, tau=2.0, backend=torch
          (surrogate_function): Sigmoid(alpha=4.0, spiking=True)
        )
        (mlp1_conv): Conv2d(768, 3072, kernel_size=(1, 1), stride=(1, 1))
        (mlp1_bn): BatchNorm2d(3072, eps=1e-05, momentum=0.1, affine=True, track_running_stats=True)
        (mlp2_lif): MultiStepLIFNode(
          v_threshold=1.0, v_reset=0.0, detach_reset=True, tau=2.0, backend=torch
          (surrogate_function): Sigmoid(alpha=4.0, spiking=True)
        )
        (mlp2_conv): Conv2d(3072, 768, kernel_size=(1, 1), stride=(1, 1))
        (mlp2_bn): BatchNorm2d(768, eps=1e-05, momentum=0.1, affine=True, track_running_stats=True)
      )
    )
    (3): SpikingTransformer(
      (norm1): LayerNorm((768,), eps=1e-05, elementwise_affine=True)
      (attn): SpikingSelfAttention(
        (proj_lif): MultiStepLIFNode(
          v_threshold=1.0, v_reset=0.0, detach_reset=True, tau=2.0, backend=torch
          (surrogate_function): Sigmoid(alpha=4.0, spiking=True)
        )
        (q_conv): Conv1d(768, 768, kernel_size=(1,), stride=(1,), bias=False)
        (q_bn): BatchNorm1d(768, eps=1e-05, momentum=0.1, affine=True, track_running_stats=True)
        (q_lif): MultiStepLIFNode(
          v_threshold=1.0, v_reset=0.0, detach_reset=True, tau=2.0, backend=torch
          (surrogate_function): Sigmoid(alpha=4.0, spiking=True)
        )
        (k_conv): Conv1d(768, 768, kernel_size=(1,), stride=(1,), bias=False)
        (k_bn): BatchNorm1d(768, eps=1e-05, momentum=0.1, affine=True, track_running_stats=True)
        (k_lif): MultiStepLIFNode(
          v_threshold=1.0, v_reset=0.0, detach_reset=True, tau=2.0, backend=torch
          (surrogate_function): Sigmoid(alpha=4.0, spiking=True)
        )
        (v_conv): Conv1d(768, 768, kernel_size=(1,), stride=(1,), bias=False)
        (v_bn): BatchNorm1d(768, eps=1e-05, momentum=0.1, affine=True, track_running_stats=True)
        (v_lif): MultiStepLIFNode(
          v_threshold=1.0, v_reset=0.0, detach_reset=True, tau=2.0, backend=torch
          (surrogate_function): Sigmoid(alpha=4.0, spiking=True)
        )
        (attn_lif): MultiStepLIFNode(
          v_threshold=0.5, v_reset=0.0, detach_reset=True, tau=2.0, backend=torch
          (surrogate_function): Sigmoid(alpha=4.0, spiking=True)
        )
        (proj_conv): Conv1d(768, 768, kernel_size=(1,), stride=(1,))
        (proj_bn): BatchNorm1d(768, eps=1e-05, momentum=0.1, affine=True, track_running_stats=True)
      )
      (drop_path): DropPath(drop_prob=0.086)
      (norm2): LayerNorm((768,), eps=1e-05, elementwise_affine=True)
      (mlp): MLP(
        (mlp1_lif): MultiStepLIFNode(
          v_threshold=1.0, v_reset=0.0, detach_reset=True, tau=2.0, backend=torch
          (surrogate_function): Sigmoid(alpha=4.0, spiking=True)
        )
        (mlp1_conv): Conv2d(768, 3072, kernel_size=(1, 1), stride=(1, 1))
        (mlp1_bn): BatchNorm2d(3072, eps=1e-05, momentum=0.1, affine=True, track_running_stats=True)
        (mlp2_lif): MultiStepLIFNode(
          v_threshold=1.0, v_reset=0.0, detach_reset=True, tau=2.0, backend=torch
          (surrogate_function): Sigmoid(alpha=4.0, spiking=True)
        )
        (mlp2_conv): Conv2d(3072, 768, kernel_size=(1, 1), stride=(1, 1))
        (mlp2_bn): BatchNorm2d(768, eps=1e-05, momentum=0.1, affine=True, track_running_stats=True)
      )
    )
    (4): SpikingTransformer(
      (norm1): LayerNorm((768,), eps=1e-05, elementwise_affine=True)
      (attn): SpikingSelfAttention(
        (proj_lif): MultiStepLIFNode(
          v_threshold=1.0, v_reset=0.0, detach_reset=True, tau=2.0, backend=torch
          (surrogate_function): Sigmoid(alpha=4.0, spiking=True)
        )
        (q_conv): Conv1d(768, 768, kernel_size=(1,), stride=(1,), bias=False)
        (q_bn): BatchNorm1d(768, eps=1e-05, momentum=0.1, affine=True, track_running_stats=True)
        (q_lif): MultiStepLIFNode(
          v_threshold=1.0, v_reset=0.0, detach_reset=True, tau=2.0, backend=torch
          (surrogate_function): Sigmoid(alpha=4.0, spiking=True)
        )
        (k_conv): Conv1d(768, 768, kernel_size=(1,), stride=(1,), bias=False)
        (k_bn): BatchNorm1d(768, eps=1e-05, momentum=0.1, affine=True, track_running_stats=True)
        (k_lif): MultiStepLIFNode(
          v_threshold=1.0, v_reset=0.0, detach_reset=True, tau=2.0, backend=torch
          (surrogate_function): Sigmoid(alpha=4.0, spiking=True)
        )
        (v_conv): Conv1d(768, 768, kernel_size=(1,), stride=(1,), bias=False)
        (v_bn): BatchNorm1d(768, eps=1e-05, momentum=0.1, affine=True, track_running_stats=True)
        (v_lif): MultiStepLIFNode(
          v_threshold=1.0, v_reset=0.0, detach_reset=True, tau=2.0, backend=torch
          (surrogate_function): Sigmoid(alpha=4.0, spiking=True)
        )
        (attn_lif): MultiStepLIFNode(
          v_threshold=0.5, v_reset=0.0, detach_reset=True, tau=2.0, backend=torch
          (surrogate_function): Sigmoid(alpha=4.0, spiking=True)
        )
        (proj_conv): Conv1d(768, 768, kernel_size=(1,), stride=(1,))
        (proj_bn): BatchNorm1d(768, eps=1e-05, momentum=0.1, affine=True, track_running_stats=True)
      )
      (drop_path): DropPath(drop_prob=0.114)
      (norm2): LayerNorm((768,), eps=1e-05, elementwise_affine=True)
      (mlp): MLP(
        (mlp1_lif): MultiStepLIFNode(
          v_threshold=1.0, v_reset=0.0, detach_reset=True, tau=2.0, backend=torch
          (surrogate_function): Sigmoid(alpha=4.0, spiking=True)
        )
        (mlp1_conv): Conv2d(768, 3072, kernel_size=(1, 1), stride=(1, 1))
        (mlp1_bn): BatchNorm2d(3072, eps=1e-05, momentum=0.1, affine=True, track_running_stats=True)
        (mlp2_lif): MultiStepLIFNode(
          v_threshold=1.0, v_reset=0.0, detach_reset=True, tau=2.0, backend=torch
          (surrogate_function): Sigmoid(alpha=4.0, spiking=True)
        )
        (mlp2_conv): Conv2d(3072, 768, kernel_size=(1, 1), stride=(1, 1))
        (mlp2_bn): BatchNorm2d(768, eps=1e-05, momentum=0.1, affine=True, track_running_stats=True)
      )
    )
    (5): SpikingTransformer(
      (norm1): LayerNorm((768,), eps=1e-05, elementwise_affine=True)
      (attn): SpikingSelfAttention(
        (proj_lif): MultiStepLIFNode(
          v_threshold=1.0, v_reset=0.0, detach_reset=True, tau=2.0, backend=torch
          (surrogate_function): Sigmoid(alpha=4.0, spiking=True)
        )
        (q_conv): Conv1d(768, 768, kernel_size=(1,), stride=(1,), bias=False)
        (q_bn): BatchNorm1d(768, eps=1e-05, momentum=0.1, affine=True, track_running_stats=True)
        (q_lif): MultiStepLIFNode(
          v_threshold=1.0, v_reset=0.0, detach_reset=True, tau=2.0, backend=torch
          (surrogate_function): Sigmoid(alpha=4.0, spiking=True)
        )
        (k_conv): Conv1d(768, 768, kernel_size=(1,), stride=(1,), bias=False)
        (k_bn): BatchNorm1d(768, eps=1e-05, momentum=0.1, affine=True, track_running_stats=True)
        (k_lif): MultiStepLIFNode(
          v_threshold=1.0, v_reset=0.0, detach_reset=True, tau=2.0, backend=torch
          (surrogate_function): Sigmoid(alpha=4.0, spiking=True)
        )
        (v_conv): Conv1d(768, 768, kernel_size=(1,), stride=(1,), bias=False)
        (v_bn): BatchNorm1d(768, eps=1e-05, momentum=0.1, affine=True, track_running_stats=True)
        (v_lif): MultiStepLIFNode(
          v_threshold=1.0, v_reset=0.0, detach_reset=True, tau=2.0, backend=torch
          (surrogate_function): Sigmoid(alpha=4.0, spiking=True)
        )
        (attn_lif): MultiStepLIFNode(
          v_threshold=0.5, v_reset=0.0, detach_reset=True, tau=2.0, backend=torch
          (surrogate_function): Sigmoid(alpha=4.0, spiking=True)
        )
        (proj_conv): Conv1d(768, 768, kernel_size=(1,), stride=(1,))
        (proj_bn): BatchNorm1d(768, eps=1e-05, momentum=0.1, affine=True, track_running_stats=True)
      )
      (drop_path): DropPath(drop_prob=0.143)
      (norm2): LayerNorm((768,), eps=1e-05, elementwise_affine=True)
      (mlp): MLP(
        (mlp1_lif): MultiStepLIFNode(
          v_threshold=1.0, v_reset=0.0, detach_reset=True, tau=2.0, backend=torch
          (surrogate_function): Sigmoid(alpha=4.0, spiking=True)
        )
        (mlp1_conv): Conv2d(768, 3072, kernel_size=(1, 1), stride=(1, 1))
        (mlp1_bn): BatchNorm2d(3072, eps=1e-05, momentum=0.1, affine=True, track_running_stats=True)
        (mlp2_lif): MultiStepLIFNode(
          v_threshold=1.0, v_reset=0.0, detach_reset=True, tau=2.0, backend=torch
          (surrogate_function): Sigmoid(alpha=4.0, spiking=True)
        )
        (mlp2_conv): Conv2d(3072, 768, kernel_size=(1, 1), stride=(1, 1))
        (mlp2_bn): BatchNorm2d(768, eps=1e-05, momentum=0.1, affine=True, track_running_stats=True)
      )
    )
    (6): SpikingTransformer(
      (norm1): LayerNorm((768,), eps=1e-05, elementwise_affine=True)
      (attn): SpikingSelfAttention(
        (proj_lif): MultiStepLIFNode(
          v_threshold=1.0, v_reset=0.0, detach_reset=True, tau=2.0, backend=torch
          (surrogate_function): Sigmoid(alpha=4.0, spiking=True)
        )
        (q_conv): Conv1d(768, 768, kernel_size=(1,), stride=(1,), bias=False)
        (q_bn): BatchNorm1d(768, eps=1e-05, momentum=0.1, affine=True, track_running_stats=True)
        (q_lif): MultiStepLIFNode(
          v_threshold=1.0, v_reset=0.0, detach_reset=True, tau=2.0, backend=torch
          (surrogate_function): Sigmoid(alpha=4.0, spiking=True)
        )
        (k_conv): Conv1d(768, 768, kernel_size=(1,), stride=(1,), bias=False)
        (k_bn): BatchNorm1d(768, eps=1e-05, momentum=0.1, affine=True, track_running_stats=True)
        (k_lif): MultiStepLIFNode(
          v_threshold=1.0, v_reset=0.0, detach_reset=True, tau=2.0, backend=torch
          (surrogate_function): Sigmoid(alpha=4.0, spiking=True)
        )
        (v_conv): Conv1d(768, 768, kernel_size=(1,), stride=(1,), bias=False)
        (v_bn): BatchNorm1d(768, eps=1e-05, momentum=0.1, affine=True, track_running_stats=True)
        (v_lif): MultiStepLIFNode(
          v_threshold=1.0, v_reset=0.0, detach_reset=True, tau=2.0, backend=torch
          (surrogate_function): Sigmoid(alpha=4.0, spiking=True)
        )
        (attn_lif): MultiStepLIFNode(
          v_threshold=0.5, v_reset=0.0, detach_reset=True, tau=2.0, backend=torch
          (surrogate_function): Sigmoid(alpha=4.0, spiking=True)
        )
        (proj_conv): Conv1d(768, 768, kernel_size=(1,), stride=(1,))
        (proj_bn): BatchNorm1d(768, eps=1e-05, momentum=0.1, affine=True, track_running_stats=True)
      )
      (drop_path): DropPath(drop_prob=0.171)
      (norm2): LayerNorm((768,), eps=1e-05, elementwise_affine=True)
      (mlp): MLP(
        (mlp1_lif): MultiStepLIFNode(
          v_threshold=1.0, v_reset=0.0, detach_reset=True, tau=2.0, backend=torch
          (surrogate_function): Sigmoid(alpha=4.0, spiking=True)
        )
        (mlp1_conv): Conv2d(768, 3072, kernel_size=(1, 1), stride=(1, 1))
        (mlp1_bn): BatchNorm2d(3072, eps=1e-05, momentum=0.1, affine=True, track_running_stats=True)
        (mlp2_lif): MultiStepLIFNode(
          v_threshold=1.0, v_reset=0.0, detach_reset=True, tau=2.0, backend=torch
          (surrogate_function): Sigmoid(alpha=4.0, spiking=True)
        )
        (mlp2_conv): Conv2d(3072, 768, kernel_size=(1, 1), stride=(1, 1))
        (mlp2_bn): BatchNorm2d(768, eps=1e-05, momentum=0.1, affine=True, track_running_stats=True)
      )
    )
    (7): SpikingTransformer(
      (norm1): LayerNorm((768,), eps=1e-05, elementwise_affine=True)
      (attn): SpikingSelfAttention(
        (proj_lif): MultiStepLIFNode(
          v_threshold=1.0, v_reset=0.0, detach_reset=True, tau=2.0, backend=torch
          (surrogate_function): Sigmoid(alpha=4.0, spiking=True)
        )
        (q_conv): Conv1d(768, 768, kernel_size=(1,), stride=(1,), bias=False)
        (q_bn): BatchNorm1d(768, eps=1e-05, momentum=0.1, affine=True, track_running_stats=True)
        (q_lif): MultiStepLIFNode(
          v_threshold=1.0, v_reset=0.0, detach_reset=True, tau=2.0, backend=torch
          (surrogate_function): Sigmoid(alpha=4.0, spiking=True)
        )
        (k_conv): Conv1d(768, 768, kernel_size=(1,), stride=(1,), bias=False)
        (k_bn): BatchNorm1d(768, eps=1e-05, momentum=0.1, affine=True, track_running_stats=True)
        (k_lif): MultiStepLIFNode(
          v_threshold=1.0, v_reset=0.0, detach_reset=True, tau=2.0, backend=torch
          (surrogate_function): Sigmoid(alpha=4.0, spiking=True)
        )
        (v_conv): Conv1d(768, 768, kernel_size=(1,), stride=(1,), bias=False)
        (v_bn): BatchNorm1d(768, eps=1e-05, momentum=0.1, affine=True, track_running_stats=True)
        (v_lif): MultiStepLIFNode(
          v_threshold=1.0, v_reset=0.0, detach_reset=True, tau=2.0, backend=torch
          (surrogate_function): Sigmoid(alpha=4.0, spiking=True)
        )
        (attn_lif): MultiStepLIFNode(
          v_threshold=0.5, v_reset=0.0, detach_reset=True, tau=2.0, backend=torch
          (surrogate_function): Sigmoid(alpha=4.0, spiking=True)
        )
        (proj_conv): Conv1d(768, 768, kernel_size=(1,), stride=(1,))
        (proj_bn): BatchNorm1d(768, eps=1e-05, momentum=0.1, affine=True, track_running_stats=True)
      )
      (drop_path): DropPath(drop_prob=0.200)
      (norm2): LayerNorm((768,), eps=1e-05, elementwise_affine=True)
      (mlp): MLP(
        (mlp1_lif): MultiStepLIFNode(
          v_threshold=1.0, v_reset=0.0, detach_reset=True, tau=2.0, backend=torch
          (surrogate_function): Sigmoid(alpha=4.0, spiking=True)
        )
        (mlp1_conv): Conv2d(768, 3072, kernel_size=(1, 1), stride=(1, 1))
        (mlp1_bn): BatchNorm2d(3072, eps=1e-05, momentum=0.1, affine=True, track_running_stats=True)
        (mlp2_lif): MultiStepLIFNode(
          v_threshold=1.0, v_reset=0.0, detach_reset=True, tau=2.0, backend=torch
          (surrogate_function): Sigmoid(alpha=4.0, spiking=True)
        )
        (mlp2_conv): Conv2d(3072, 768, kernel_size=(1, 1), stride=(1, 1))
        (mlp2_bn): BatchNorm2d(768, eps=1e-05, momentum=0.1, affine=True, track_running_stats=True)
      )
    )
  )
  (head): Linear(in_features=768, out_features=1000, bias=True)
)
